notebooks/.ipynb_checkpoints/trainedModels/diabete_model3.pth (torch, 13903 bytes, 5 tensors)

weight f4 [64, 8]
0.12664062 -0.087884925 -0.14302312 -0.38002905 0.32726574 -0.41362825 -0.7880808 0.55110687
-0.47406712 -0.52411455 -0.29061833 -0.026299987 -0.15101615 -0.36317948 0.12411993 -0.14103505
0.2626973 0.35417873 0.25620908 -0.18693207 -0.36940286 -0.039387394 -1.1991836 0.08802343
0.15683134 0.12252231 -0.10547899 0.003163253 -0.11331987 -0.2581667 0.9374877 0.32847914
-0.4807253 0.07555247 -0.24926005 -0.11783391 -0.26623318 -0.46460244 -0.40808198 -0.37419376
0.2658704 -0.6779955 -0.12586188 -0.14644493 0.0811007 -0.6748982 -0.091403075 -0.2884825
0.68342143 -0.7965442 -0.050869636 0.04626855 0.3062981 -0.006303129 -0.45299357 0.14016928
0.37168655 -0.5711671 -0.13383062 -0.46144578 0.45558068 -0.24852556 -0.3928422 -0.4241684
-0.13004006 -0.05190767 0.017846392 0.1091061 -0.09726864 0.26999345 0.3444685 0.17367883
0.21671352 0.032336876 0.08221428 0.18938208 0.21193518 0.029794786 -0.54848635 0.042632602
-0.025462626 -0.053791657 -0.023083357 -0.010246158 -0.018080888 -0.037975576 -0.59340405 1.0167533
0.1680076 -0.032523397 -0.10675462 0.10432211 -0.7616892 -0.30616936 -0.32997856 -0.04603222
0.14564118 0.3059314 -0.16911742 0.05312437 0.057105824 -0.23196772 0.6972188 -0.73817384
0.19862354 0.11095981 0.17131145 0.09394821 0.23278612 -0.15833881 -1.0879786 -0.07639465
0.06066946 -0.15874384 0.028844092 0.06862725 -0.1897645 0.028860105 1.1863884 0.26268226
0.5207202 -0.25940952 -0.35191962 0.19415458 -0.3162556 -0.34746593 -0.5483759 -0.9783109
0.31555328 0.08757612 0.13749534 -0.14891723 -0.356861 -0.10172042 -0.55501163 0.2512501
-0.16403727 0.34960195 -0.12529859 0.1029611 -0.2403704 -0.012507847 -0.84221756 0.043129556
-0.19293398 -0.33543262 -0.100648746 0.15007307 -0.12984703 -0.119301096 -0.42544204 -0.057357196
0.6306526 -0.45110017 0.0320959 0.069833316 -0.069333225 -0.0863128 -0.55602616 -0.064192705
-0.068572655 -0.3048347 -0.11759383 -0.0015206465 -0.032101776 0.10780899 1.009842 -0.7722542
-0.047151033 -0.6213803 0.039150994 0.17131662 0.433714 -0.86092025 -0.26139432 0.11079247
0.039135143 0.093455024 -0.20245768 0.05415326 0.10786146 -0.10004172 -0.3716194 -0.15594934
-0.7015807 0.119999565 -0.121859886 -0.48512402 -0.14567581 -0.19614208 -0.46514732 -0.1677941
0.07558596 -0.08535975 0.025640521 -0.081224695 0.1364693 -0.12572983 1.0627867 -0.17779884
-0.37350973 -0.5980522 0.01977833 0.20943262 -0.095884345 0.025562396 -0.53082395 0.040194664
-0.04067849 0.07024945 -0.33732066 -0.27569386 -0.084743835 0.06172902 -0.37978446 -0.12531257
-0.09514333 -0.18997855 0.052831165 -0.029809656 0.2867758 -0.5383578 0.9315249 0.2123781
0.22904018 -0.21962845 -0.04500474 -0.11244527 -0.045139696 0.10698949 -0.3490387 0.14999822
-0.16854195 -0.075240515 -0.07786739 -0.12493828 0.026186317 0.089743264 -0.38898212 -0.23360197
0.35387665 0.03716942 0.12249573 -0.5831568 0.11282219 -0.29226026 -0.39777112 0.13381124
-0.08316037 -0.086179584 0.1319985 0.16584364 0.24777444 -0.52244115 -0.26563883 0.13693212
00000000: 14ae 013e 03fd b3bd a774 12be 2b93 c2be
00000010: 608f a73e 15c7 d3be aabf 49bf 5715 0d3f
00000020: edb8 f2be 5f2c 06bf edcb 94be 1273 d7bc
00000030: faa3 1abe a9f2 b9be 9732 fe3d 7e6b 10be
00000040: 4380 863e ea56 b53e d62d 833e 1f6b 3fbe
00000050: 5f22 bdbe ad54 21bd d97e 99bf a145 b43d
00000060: 6598 203e faec fa3d 5e05 d8bd 944e 4f3b
00000070: 3f14 e8bd 6d2e 84be 32ff 6f3f 6b2e a83e
00000080: a021 f6be 41bb 9a3d 073e 7fbe e852 f1bd
00000090: b74f 88be 5fe0 edbe 1ff0 d0be 5396 bfbe
000000a0: 2a20 883e 1d91 2dbf f0e1 00be a9f5 15be
000000b0: 2018 a63d 21c6 2cbf 8931 bbbd fab3 93be
000000c0: b5f4 2e3f 52ea 4bbf ae5c 50bd 1784 3d3d
000000d0: 1bd3 9c3e 7a8a cebb c6ee e7be 8988 0f3e
000000e0: b34d be3e 0238 12bf e50a 09be 9f42 ecbe
000000f0: df41 e93e 7c7d 7ebe 9d22 c9be 9a2c d9be
00000100: 3929 05be 239d 54bd 9932 923c 0573 df3d
00000110: c834 c7bd 953c 8a3e 2d5e b03e ddd8 313e
00000120: 26ea 5d3e ac73 043d f65f a83d 60ed 413e
00000130: 8905 593e 3214 f43c 9a69 0cbf 869f 2e3d
00000140: ff96 d0bc a454 5cbd 4f19 bdbc 80df 27bc
00000150: 5f1e 94bc 478c 1bbd 54e9 17bf f924 823f
00000160: 2f0a 2c3e 4137 05bd 2ba2 dabd d5a6 d53d
00000170: 10fe 42bf 3bc2 9cbe f3f2 a8be 488c 3cbd
00000180: f622 153e 0aa3 9c3e 1e2d 2dbe f098 593d
00000190: cce7 693d f288 6dbe ee7c 323f f6f8 3cbf
000001a0: f863 4b3e e63e e33d 456c 2f3e eb67 c03d
000001b0: 7c5f 6e3e 9223 22be e242 8bbf cc74 9cbd
000001c0: 8a80 783d bf8d 22be 724a ec3c 728c 8c3d
000001d0: a051 42be 076c ec3c 93db 973f 4a7e 863e
000001e0: eb4d 053f 53d1 84be cf2e b4be 75d0 463e
000001f0: 41ec a1be 0ee7 b1be 5d62 0cbf 9572 7abf
00000200: 3390 a13e 1c5b b33d 94cb 0c3e c27d 18be
00000210: 7cb6 b6be cc52 d0bd 3e15 0ebf daa3 803e
00000220: 63f9 27be 07ff b23e 464e 00be 45dd d23d
00000230: a823 76be b6ed 4cbc 929b 57bf 9ea8 303d
00000240: 7c90 45be d3bd abbe ee20 cebd c1ac 193e
00000250: 9ff6 04be 2254 f4bd 8ad3 d9be 61ef 6abd
00000260: 7372 213f 9af6 e6be fe76 033d c504 8f3d
00000270: 94fe 8dbd c4c4 b0bd bb57 0ebf 7777 83bd
00000280: d26f 8cbd 4b13 9cbe 09d5 f0bd 6e50 c7ba
00000290: 277d 03bd f6ca dc3d 8142 813f 74b2 45bf
000002a0: 7121 41bd c812 1fbf cb5c 203d a06d 2f3e
000002b0: c30f de3e 4565 5cbf 7ad5 85be 2ae7 e23d
000002c0: 2c4c 203d 5965 bf3d 1151 4fbe cfcf 5d3d
000002d0: 78e6 dc3d ace2 ccbd e644 bebe 2fb1 1fbe
000002e0: cb9a 33bf 55c2 f53d ad91 f9bd 2d62 f8be
000002f0: 0a2c 15be 78d9 48be ca27 eebe 37d2 2bbe
00000300: d0cc 9a3d 18d1 aebd 120c d23c 2259 a6bd
00000310: 9cbe 0b3e 52bf 00be 6509 883f e610 36be
00000320: ab3c bfbe f319 19bf 2a06 a23c 8175 563e
00000330: 035f c4bd 3b68 d13c 14e4 07bf 29a3 243d
00000340: 7d9e 26bd f2de 8f3d 4bb5 acbe bf27 8dbe
00000350: 2d8e adbd 92d7 7c3d 1c73 c2be f051 00be
00000360: 82da c2bd bd89 42be 7e65 583d 6133 f4bc
00000370: 47d4 923e d1d1 09bf 6a78 6e3f a579 593e
00000380: 8289 6a3e 48e6 60be e456 38bd b549 e6bd
00000390: 67e4 38bd 4e1d db3d 33b5 b2be 2299 193e
000003a0: 4396 2cbe b317 9abd f078 9fbd a4df ffbd
000003b0: b084 d63c 51cb b73d aa28 c7be 5b35 6fbe
000003c0: 522f b53e f63e 183d 0bdf fa3d c449 15bf
000003d0: 520f e73d 23a3 95be a8a8 cbbe d005 093e
000003e0: fc4f aabd ec7e b0bd 9d2a 073e ead2 293e
000003f0: 95b8 7d3e b4be 05bf d001 88be ef37 0c3e

bias f4 [64]
0.031386644 -0.13660716 -0.27073342 -0.3955918 -0.1731159 -0.33160254 0.12568252 0.29104006
-0.2258255 0.6040827 -0.9765145 0.13946553 -0.38577715 -0.3645203 -0.3183604 -0.06387157
0.6054221 -0.029651672 0.39206052 0.2404702 -0.17151113 -0.18363169 0.6377531 0.43284863
-0.65626943 0.23133309 0.53019935 -0.6599694 0.6489346 -0.062654175 0.433524 0.7371139
0.6238149 0.5217207 -0.16520688 -0.469347 0.34026328 -0.4304125 0.30054316 0.23311488
0.25822228 0.4124932 0.33937216 -0.266147 -0.4239485 0.25136554 -0.0059177233 0.501676
-0.092414394 -0.44620597 0.53485274 0.31131855 0.09876682 0.5331846 0.78878284 -0.70709723
0.32843015 0.14775012 0.56849813 0.12538005 -0.33725622 0.25239828 -0.6417743 -0.5040129
00000000: 488f 003d bfe2 0bbe 929d 8abe 028b cabe
00000010: 4b45 31be cfc7 a9be ebb2 003e 3403 953e
00000020: cd3e 67be 2aa5 1a3f dbfc 79bf 0dd0 0e3e
00000030: 9584 c5be 68a2 babe 2200 a3be 19cf 82bd
00000040: f1fc 1a3f 10e8 f2bc 28bc c83e d23d 763e
00000050: 9da0 2fbe f209 3cbe ca43 233f 569e dd3e
00000060: 4601 28bf 95e2 6c3e 25bb 073f c1f3 28bf
00000070: 9420 263f d550 80bd dcf6 dd3e 7fb3 3c3f
00000080: 55b2 1f3f 7d8f 053f fe2b 29be 404e f0be
00000090: fd36 ae3e 075f dcbe cbe0 993e abb5 6e3e
000000a0: b635 843e 4f32 d33e 30c2 ad3e 6b44 88be
000000b0: c70f d9be fcb2 803e 76e9 c1bb d76d 003f
000000c0: c243 bdbd 1c75 e4be 1cec 083f 2565 9f3e
000000d0: 4246 ca3d c97e 083f aced 493f 5304 35bf
000000e0: ff27 a83e cf4b 173e 1889 113f a163 003e
000000f0: d9ac acbe 593a 813e 524b 24bf fd06 01bf

weight f4 [32, 64]
0.5468197 0.16099474 0.34644663 -0.04729879 -0.13798906 -0.4487818 0.63497466 0.122354746
-0.16551448 -0.04159116 -1.1040307 0.06871202 0.10525216 -0.12862012 0.22396621 -0.026839752
-0.030377878 0.1389205 0.19334069 0.20566262 0.31801125 -0.11089336 -0.1430211 0.20433377
-0.042927105 -0.09539703 -0.058827173 -0.42035583 -0.10030527 0.09064001 -0.019548312 -0.047708876
0.104156926 -0.10141253 0.4721848 0.07059073 -0.04468731 -0.41552472 -0.078058615 1.5559207
-0.18871097 0.022848872 0.02380677 -0.31446487 2.6376293 0.122221075 0.51200134 0.1954401
0.053541724 0.606106 -0.064239286 0.1846598 -0.1624506 0.09376756 -0.19411725 -0.17350014
0.115306035 0.09691031 0.21486817 0.34763268 -0.06557372 0.0011654128 0.33288062 -0.008512231
0.30618685 0.32640225 0.23892783 0.10173372 -0.31960976 -0.46339312 0.4169928 -0.16155879
-0.11511778 0.009279345 -1.442084 0.17720094 0.00042532687 0.1270383 0.20920803 -0.10091935
-0.031424373 0.06726109 0.0031250508 0.1828804 0.07619582 0.23503354 0.07088931 0.05189741
-0.16566142 -0.10297372 -0.18617064 -0.35900423 -0.08895548 -0.058866605 0.05811113 -0.12149815
0.08424701 0.0047972235 0.28862873 0.12807466 -0.038803685 -0.16656856 -0.1070586 1.5911223
-0.31333748 -0.045675803 -0.0036323112 -0.3950393 2.8253613 -0.15409373 0.3972563 0.21450077
0.13357486 0.5399574 0.050884854 0.19375028 -0.16037652 0.197683 0.02533586 -0.5538669
0.23101677 -0.00841441 -0.080710106 0.1025191 -0.15051833 -0.07093012 0.26037169 -0.027278546
0.5418846 0.23065187 0.3073817 0.18079507 -0.3820268 -0.32825008 0.39101356 -0.05196039
-0.044532396 0.008569131 -1.0788623 0.09827901 -0.051145427 0.046576146 0.35123965 -0.026966834
-0.054973323 -0.07283954 0.019150268 -0.07784727 0.07727743 0.12889571 0.14612085 0.24384281
-0.008811154 -0.10851849 0.07896467 -0.043579467 0.021150464 0.10074985 0.2494807 0.12384964
0.0008156982 0.08471683 0.10418096 0.05537441 0.09221526 0.07505299 -0.0044099684 1.5250387
0.11034773 -0.268004 0.21508333 -0.28182307 2.7008214 -0.015144981 0.06422769 0.31722346
0.2954175 0.5165313 0.10248412 0.22517699 -0.20508389 0.40712434 0.10947124 -0.11058592
0.13437311 0.07758212 0.33795744 -0.18829499 -0.07729853 -0.010031707 0.45216843 -0.038312126
0.70488155 0.26433206 0.17358012 0.24948013 -0.2717236 -0.49735114 0.377538 0.06485885
-0.10361706 -0.008849681 -1.044263 0.05534968 -0.02006355 -0.08422831 0.37120625 -0.16769604
0.086077616 0.14976738 0.0016996446 -0.18186289 0.2538722 0.16782363 0.020078689 0.12481925
0.02856072 -0.13773818 -0.046180893 -0.16827947 -0.09847782 0.009240988 0.2629867 0.2547774
0.16276623 -0.09169014 0.09266038 -0.009545322 0.025545806 -0.084048845 -0.19518234 1.6417936
0.108276784 -0.30255768 0.25403875 -0.35733324 2.708069 0.04162308 0.25522733 0.288131
0.2082463 0.6370923 0.35745314 0.3039171 -0.03434991 0.36821583 -0.028454306 0.17773277
0.36517292 0.05572655 0.0663894 -0.17235312 -0.17423627 -0.1232179 0.6443706 -0.3103806
00000000: 60fc 0b3f cedb 243e 7461 b13e 60bc 41bd
00000010: 014d 0dbe bac6 e5be b38d 223f 2095 fa3d
00000020: a17c 29be 7e5b 2abd e150 8dbf e3b8 8c3d
00000030: 728e d73d feb4 03be 6657 653e 0adf dbbc
00000040: 07db f8bc 2d41 0e3e 1afb 453e 3999 523e
00000050: 5fd2 a23e 0f1c e3bd 2074 12be df3c 513e
00000060: 55d4 2fbd 855f c3bd c3f4 70bd e138 d7be
00000070: d96c cdbd 78a1 b93d c823 a0bc 626a 43bd
00000080: 3a50 d53d 5fb1 cfbd 35c2 f13e df91 903d
00000090: 0a0a 37bd a8bf d4be 32dd 9fbd 6928 c73f
000000a0: 733d 41be 8f2d bb3c 6a06 c33c 8a01 a1be
000000b0: ebce 2840 0b4f fa3d 8512 033f 7321 483e
000000c0: 914e 5b3d c329 1b3f e38f 83bd 7517 3d3e
000000d0: 7359 26be 3509 c03d acc6 46be 05aa 31be
000000e0: 9225 ec3d ea78 c63d 6706 5c3e e9fc b13e
000000f0: 844b 86bd c4c0 983a 546f aa3e e276 0bbc
00000100: 86c4 9c3e 321e a73e 7fa9 743e c559 d03d
00000110: e4a3 a3be dd41 edbe 1580 d53e ab6f 25be
00000120: dfc2 ebbd 6508 183c 3596 b8bf 2a74 353e
00000130: 68fe de39 5416 023e a13a 563e ceae cebd
00000140: d8b6 00bd 2fc0 893d a7cd 4c3b 0045 3b3e
00000150: 8e0c 9c3d a2ac 703e 6a2e 913d 6192 543d
00000160: 26a3 29be e3e3 d2bd 84a3 3ebe 67cf b7be
00000170: 4a2e b6bd 1c1e 71bd f005 6e3d 06d4 f8bd
00000180: b289 ac3d 0732 9d3b 25c7 933e 0126 033e
00000190: 9df0 1ebd f390 2abe 8a41 dbbd e5a9 cb3f
000001a0: c56d a0be 8d16 3bbd 120c 6ebb 9742 cabe
000001b0: b8d2 3440 bfca 1dbe 2e65 cb3e 17a6 5b3e
000001c0: d9c7 083e a63a 0a3f a36c 503d 7966 463e
000001d0: be39 24be 6a6d 4a3e 268d cf3c 39ca 0dbf
000001e0: a98f 6c3e 98dc 09bc 574b a5bd 89f5 d13d
000001f0: 7a21 1abe d043 91bd 704f 853e 4277 dfbc
00000200: f3b8 0a3f 0130 6c3e 2261 9d3e 5822 393e
00000210: 0499 c3be 6510 a8be ee32 c83e 6bd4 54bd
00000220: 9a67 36bd 8a65 0c3c 2918 8abf 8146 c93d
00000230: de7d 51bd a1c6 3e3d afd5 b33e 8de9 dcbc
00000240: b52b 61bd e62c 95bd 06e1 9c3c 646e 9fbd
00000250: a143 9e3d 3dfd 033e b4a0 153e eeb1 793e
00000260: a95c 10bc f13e debd 3bb8 a13d 6280 32bd
00000270: bd43 ad3c f055 ce3d de77 7f3e e1a4 fd3d
00000280: 94d4 553a 0480 ad3d d45c d53d 47d0 623d
00000290: 5bdb bc3d 62b5 993d 7f81 90bb 7834 c33f
000002a0: fefd e13d d237 89be ce3e 5c3e 1d4b 90be
000002b0: 42da 2c40 a822 78bc cf89 833d 1d6b a23e
000002c0: f640 973e 653b 043f 32e3 d13d cc94 663e
000002d0: 8301 52be 9a72 d03e 7532 e03d df7a e2bd
000002e0: 1b99 093e 60e3 9e3d c208 ad3e 67d0 40be
000002f0: b14e 9ebd 075c 24bc 9f82 e73e 2ded 1cbd
00000300: 1e73 343f 8856 873e fdbe 313e b877 7f3e
00000310: 5b1f 8bbe cfa4 febe a94c c13e b7d4 843d
00000320: 2e35 d4bd 41fe 10bc 69aa 85bf 59b6 623d
00000330: 505c a4bc e47f acbd bf0e be3e 83b8 2bbe
00000340: 7649 b03d 9f5c 193e 9cc6 de3a 443a 3abe
00000350: 89fb 813e f5d9 2b3e 107c a43c 3ca1 ff3d
00000360: 2cf8 e93c 3d0b 0dbe 2d28 3dbd 7451 2cbe
00000370: bdae c9bd 8367 173c 31a6 863e 2f72 823e
00000380: 31ac 263e 0ac8 bbbd bac4 bd3d fb63 1cbc
00000390: 7045 d13c cd21 acbd e1dd 47be 4b26 d23f
000003a0: 38c0 dd3d d7e8 9abe 5e11 823e 62f4 b6be
000003b0: 0151 2d40 f67c 2a3d 28ad 823e e885 933e
000003c0: 853e 553e 7b18 233f 1904 b73e 069b 9b3e
000003d0: 7eb2 0cbd c986 bc3e 0119 e9bc 94ff 353e
000003e0: f2f7 ba3e 8641 643d 2af7 873d 567d 30be
000003f0: fe6a 32be ab59 fcbd 79f5 243f 35ea 9ebe

bias f4 [32]
0.07067078 0.11162294 0.2585979 0.2220717 0.00058321183 0.0042909067 0.23652054 0.13088849
-0.37531546 0.2550515 -0.14365847 -0.015815549 0.05452843 0.14031689 -0.063139305 -0.08052667
0.10962387 0.098262034 -0.057965044 -0.11422182 -0.525188 -0.45197272 0.1383382 -0.47958574
-0.324851 -0.005348977 -0.39240336 0.06426614 -0.08520844 0.22834851 0.05372199 0.057576478
00000000: d8bb 903d 919a e43d f266 843e c466 633e
00000010: afe2 183a bc9a 8c3b 7132 723e a207 063e
00000020: 5929 c0be 1c96 823e 351b 13be 9c8f 81bc
00000030: 3459 5f3d 3baf 0f3e 2e4f 81bd 2beb a4bd
00000040: 7b82 e03d 9b3d c93d c16c 6dbd 21ed e9bd
00000050: b972 06bf f868 e7be 87a8 0d3e 438c f5be
00000060: df52 a6be 7946 afbb 18e9 c8be f79d 833d
00000070: c381 aebd 31d4 693e 970b 5c3d 50d5 6b3d

weight f4 [1, 32]
-0.08346462 -0.04313854 -0.16110887 -0.28079638 -0.044270974 -0.08251605 -0.03437537 -0.04227311
2.0578308 -0.17252457 0.019615483 0.36137876 -0.22971673 -0.24298683 0.24568805 0.1333121
-0.12626214 -0.010455362 0.005478973 -0.18016647 1.912575 2.5300639 -0.03266265 4.09758
1.0672276 -0.25202215 0.9279159 0.07593194 0.12213144 -0.14390886 -0.1042785 -0.18340108
00000000: 80ef aabd 0ab2 30bd b9f9 24be 8bc4 8fbe
00000010: 7b55 35bd 2dfe a8bd 30cd 0cbd 9226 2dbd
00000020: 80b3 0340 48aa 30be a6b0 a03c a306 b93e
00000030: dd3a 6bbe 8ad1 78be a695 7b3e f882 083e
00000040: dd4a 01be f74c 2bbc f588 b33b 8f7d 38be
00000050: 42cf f43f 91ec 2140 45c9 05bd 601f 8340
00000060: ea9a 883f 0c09 81be e58b 6d3f 3482 9b3d
00000070: 0c20 fa3d d85c 13be f78f d5bd 7ecd 3bbe
